pygame 1.9.4
Hello from the pygame community. https://www.pygame.org/contribute.html
_________________________________________________________________
Layer (type)                 Output Shape              Param #   
=================================================================
dense_1 (Dense)              (None, 128)               1664      
_________________________________________________________________
activation_1 (Activation)    (None, 128)               0         
_________________________________________________________________
dropout_1 (Dropout)          (None, 128)               0         
_________________________________________________________________
dense_2 (Dense)              (None, 128)               16512     
_________________________________________________________________
activation_2 (Activation)    (None, 128)               0         
_________________________________________________________________
dropout_2 (Dropout)          (None, 128)               0         
_________________________________________________________________
dense_3 (Dense)              (None, 2)                 258       
_________________________________________________________________
activation_3 (Activation)    (None, 2)                 0         
=================================================================
Total params: 18,434
Trainable params: 18,434
Non-trainable params: 0
_________________________________________________________________
None
Setiiii
_________________________________________________________________
Layer (type)                 Output Shape              Param #   
=================================================================
dense_4 (Dense)              (None, 128)               1664      
_________________________________________________________________
activation_4 (Activation)    (None, 128)               0         
_________________________________________________________________
dropout_3 (Dropout)          (None, 128)               0         
_________________________________________________________________
dense_5 (Dense)              (None, 128)               16512     
_________________________________________________________________
activation_5 (Activation)    (None, 128)               0         
_________________________________________________________________
dropout_4 (Dropout)          (None, 128)               0         
_________________________________________________________________
dense_6 (Dense)              (None, 2)                 258       
_________________________________________________________________
activation_6 (Activation)    (None, 2)                 0         
=================================================================
Total params: 18,434
Trainable params: 18,434
Non-trainable params: 0
_________________________________________________________________
None
TTTT
Connection Estalishment.... 
YYYYYYYYYYYYYYYYYYYY
TRAING METHOD
True 0
TTTT
Connection Estalishment.... 
YYYYYYYYYYYYYYYYYYYY
TRAING METHOD
True 1
TTTT
Connection Estalishment.... 
…
